# parameters
nc: 6 # number of classes
depth_multiple: 1.0  # model depth multiple
width_multiple: 1.0  # layer channel multiple

# anchors
anchors:
  - [10,13, 16,30, 33,23]  # P3/8
  - [30,61, 62,45, 59,119]  # P4/16
  - [116,90, 156,198, 373,326]  # P5/32

# yolov7-tiny backbone
backbone:
  # [from, number, module, args] c2, k=1, s=1, p=None, g=1, act=True

  [ [ -1, 1, conv_bn_hswish, [ 16, 2 ] ],                 # 0-p1/2
    [ -1, 1, MobileNet_Block, [ 16,  16, 3, 2, 1, 0 ] ],  # 1-p2/4
    [ -1, 1, MobileNet_Block, [ 24,  72, 3, 2, 0, 0 ] ],  # 2-p3/8
    [ -1, 1, MobileNet_Block, [ 24,  88, 3, 1, 0, 0 ] ],  # 3-p3/8   ####
    [ -1, 1, MobileNet_Block, [ 40,  96, 5, 2, 1, 1 ] ],  # 4-p4/16
    [ -1, 1, MobileNet_Block, [ 40, 240, 5, 1, 1, 1 ] ],  # 5-p4/16
    [ -1, 1, MobileNet_Block, [ 40, 240, 5, 1, 1, 1 ] ],  # 6-p4/16
    [ -1, 1, MobileNet_Block, [ 48, 120, 5, 1, 1, 1 ] ],  # 7-p4/16
    [ -1, 1, MobileNet_Block, [ 48, 144, 5, 1, 1, 1 ] ],  # 8-p4/16  ######
    [ -1, 1, MobileNet_Block, [ 96, 288, 5, 2, 1, 1 ] ],  # 9-p5/32
    [ -1, 1, MobileNet_Block, [ 96, 576, 5, 1, 1, 1 ] ],  # 10-p5/32
    [ -1, 1, MobileNet_Block, [ 96, 576, 5, 1, 1, 1 ] ],  # 11-p5/32
  ]


# yolov7-tiny head
head:
  [[-1, 1, SPPCSPCSIM, [256, nn.LeakyReLU(0.1)]], # 9-Yolov7-tiny-spp (12)

   [-1, 1, Conv, [128, 1, 1, None, 1, nn.LeakyReLU(0.1)]],
   [-1, 1, nn.Upsample, [None, 2, 'nearest']],
   [8, 1, Conv, [128, 1, 1, None, 1, nn.LeakyReLU(0.1)]], # route backbone P4 (15)
   [[-1, -2], 1, Concat, [1]],
   [-1, 1, yolov7_tiny_E_ELAN, [128, 64, nn.LeakyReLU(0.1)]], # 14 (17)

   [-1, 1, Conv, [64, 1, 1, None, 1, nn.LeakyReLU(0.1)]],
   [-1, 1, nn.Upsample, [None, 2, 'nearest']],
   [3, 1, Conv, [64, 1, 1, None, 1, nn.LeakyReLU(0.1)]], # route backbone P3
   [[-1, -2], 1, Concat, [1]],
   [-1, 1, yolov7_tiny_E_ELAN,[64, 32,nn.LeakyReLU(0.1)]], # 19 (22)

   [-1, 1, Conv, [128, 3, 2, None, 1, nn.LeakyReLU(0.1)]],
   [[-1, 17], 1, Concat, [1]],
   [-1, 1, yolov7_tiny_E_ELAN, [128, 64,  nn.LeakyReLU(0.1)]], # 22 (25)

   [-1, 1, Conv, [256, 3, 2, None, 1, nn.LeakyReLU(0.1)]],
   [[-1, 12], 1, Concat, [1]],
   [-1, 1, yolov7_tiny_E_ELAN, [256, 128, nn.LeakyReLU(0.1)]], # 25 (28)

   [22, 1, Conv, [128, 3, 1, None, 1, nn.LeakyReLU(0.1)]], # 26-P3 (29)
   [25, 1, Conv, [256, 3, 1, None, 1, nn.LeakyReLU(0.1)]], # 27-P4 (30)
   [28, 1, Conv, [512, 3, 1, None, 1, nn.LeakyReLU(0.1)]], # 28-P5 (31)

   [[29,30,31], 1, IDetect, [nc, anchors]],   # Detect(P3, P4, P5)
  ]